…
 epochs=200, graph_pooling='sum', num_layers=3, n_head=3, num_workers=1, num_tasks=1, save_test=True, task_name='GINGraph-test-v100', weight_decay=5e-06, learning_rate=1e-05, root='./dataset', dataset_use_pt=True, dataset_pt='./PTs/', dataset_split=[0.7, 0.2, 0.1], begin=0, save_dir='saves/GINGraph-test-v100_', output_file=<_io.TextIOWrapper name='saves/GINGraph-test-v100_/output' mode='a' encoding='UTF-8'>)
train data: 20984 valid data: 5996
#Params: 1217284
GINGraphPooling(
  (gnn_node): GINNodeEmbedding(
    (atom_encoder): EmbAtomEncoder(
      (atom_embedding_list): ModuleList(
        (0): Embedding(119, 256)
      )
      (pos_encoder): PosEncoder()
    )
    (gnnconvs): ModuleList(
      (0): GINConv()
      (1): GINConv()
      (2): GINConv()
    )
    (attentionconvs): ModuleList(
      (0): MultiHeadAttention(
        (w_qs): Linear(in_features=256, out_features=255, bias=False)
        (w_ks): Linear(in_features=256, out_features=255, bias=False)
        (w_vs): Linear(in_features=256, out_features=255, bias=False)
        (fc): Linear(in_features=255, out_features=256, bias=False)
        (attention): ScaledDotProductAttention(
          (dropout): Dropout(p=0.1, inplace=False)
        )
        (dropout): Dropout(p=0.1, inplace=False)
        (layer_norm): LayerNorm((256,), eps=1e-06, elementwise_affine=True)
      )
      (1): MultiHeadAttention(
        (w_qs): Linear(in_features=256, out_features=255, bias=False)
        (w_ks): Linear(in_features=256, out_features=255, bias=False)
        (w_vs): Linear(in_features=256, out_features=255, bias=False)
        (fc): Linear(in_features=255, out_features=256, bias=False)
        (attention): ScaledDotProductAttention(
          (dropout): Dropout(p=0.1, inplace=False)
        )
        (dropout): Dropout(p=0.1, inplace=False)
        (layer_norm): LayerNorm((256,), eps=1e-06, elementwise_affine=True)
      )
      (2): MultiHeadAttention(
        (w_qs): Linear(in_features=256, out_features=255, bias=False)
        (w_ks): Linear(in_features=256, out_features=255, bias=False)
        (w_vs): Linear(in_features=256, out_features=255, bias=False)
        (fc): Linear(in_features=255, out_features=256, bias=False)
        (attention): ScaledDotProductAttention(
          (dropout): Dropout(p=0.1, inplace=False)
        )
        (dropout): Dropout(p=0.1, inplace=False)
        (layer_norm): LayerNorm((256,), eps=1e-06, elementwise_affine=True)
      )
    )
    (batch_norms): ModuleList(
      (0): BatchNorm1d(256, eps=1e-05, momentum=0.1, affine=True, track_running_stats=True)
      (1): BatchNorm1d(256, eps=1e-05, momentum=0.1, affine=True, track_running_stats=True)
      (2): BatchNorm1d(256, eps=1e-05, momentum=0.1, affine=True, track_running_stats=True)
    )
  )
  (graph_pred_linear): Linear(in_features=256, out_features=1, bias=True)
)
2023-07-22 03:19:03 =====Epoch 1
Training...
Evaluating...
{'Train': 3.1378874804904835, 'Validation': 0.8357333540916443}
Saving checkpoint...
Predicting on test data...
Saving test submission file...
Best validation MAE so far: 0.8357333540916443
2023-07-22 03:34:39 =====Epoch 2
Training...
Evaluating...
{'Train': 1.0060725915178028, 'Validation': 0.6219512820243835}
…
